mnist-logistic-regression.pth (torch, 32423 bytes, 2 tensors)

linear.weight f4 [10, 784]
000000 27 36 11 3d 35 56 c2 bc ae 02 f9 3c 9d 2f 01 3d
       0.035452034 -0.023722747 0.030396786 0.03153955
000010 aa 5c fb bc 5c 46 b7 bc c6 bb dd 3c d8 91 0e bd
       -0.030683834 -0.022372417 0.027067076 -0.034807056
000020 be c7 fe bc 01 d1 f5 bc b4 49 79 3c a0 fb 58 3b
       -0.031101104 -0.030006887 0.015215326 0.0033108965
000030 b0 88 e5 bc 22 b6 32 bc 78 a2 f2 bb 5f ac 0f bd
       -0.02801928 -0.010907682 -0.0074046217 -0.035076495
000040 72 73 69 bc 26 7d 54 bc 00 5a 4e b9 70 30 ab 3c
       -0.014248716 -0.012969291 -0.00019679219 0.02089712
000050 f7 20 01 3d 20 27 af 3a f8 db ac bc d5 56 af bc
       0.03152558 0.0013363101 -0.021100983 -0.02140371
000060 d8 8a 17 bc 45 0c a9 bc 8f f5 10 bd cc b9 b4 3c
       -0.0092494115 -0.020635733 -0.035390433 0.022061251
000070 5a 09 d1 bc ce c1 ac bc 3e 8d f5 3c f1 84 f7 bc
       -0.025517154 -0.021088507 0.029974576 -0.030214759
000080 57 e1 88 bc 1b de b4 3c 09 51 ed 3b 04 c6 5e 3b
       -0.016709013 0.022078564 0.007242326 0.0033992538
000090 6f df f6 bb 0b eb 0c 3d 37 66 50 3c a5 12 8a bc
       -0.0075339596 0.034403842 0.012719682 -0.016854594
0000a0 93 33 06 bd b6 12 38 bb 62 07 f6 bc 32 87 54 bb
       -0.03276403 -0.0028087324 -0.030032817 -0.0032429215
0000b0 20 3f 12 bd 1f 52 00 bd 89 15 ac bc 9c cd 81 bc
       -0.035704732 -0.031328317 -0.021006363 -0.015845113
0000c0 57 bc bf bc e3 5f c7 bb bc f2 08 bd f8 b9 bb bc
       -0.023405237 -0.0060844286 -0.033434615 -0.022915825
0000d0 3e be 98 3c a8 a9 b8 3c 73 0d 02 3d d8 06 4c 3c
       0.018645402 0.022541836 0.031751107 0.012452804
0000e0 00 2d 6a 3b 53 51 d9 bc 0d 3a ed bc ce 3d bf bb
       0.0035732388 -0.026528036 -0.028958345 -0.005836225
0000f0 e0 4d 88 bc 2b 51 c5 3c 82 95 3f bc f1 70 75 3c
       -0.016638696 0.024086555 -0.01169336 0.014980541
000100 b6 e2 f5 bc 2b 07 4f bb 7e 42 db 3c 72 8a 72 bc
       -0.03001533 -0.0031589966 0.026765104 -0.014803516
000110 e3 79 d9 bc 3a a4 9c bb f8 ad e6 3b c5 81 48 3c
       -0.026547378 -0.0047803195 0.0070397817 0.012237971
000120 49 1b f7 ba 96 a6 74 3c 77 01 1d 3a f1 40 af bc
       -0.0018852736 0.014932295 0.0005989293 -0.021393271
000130 00 2d 9a 3c 6e 6c 0b bd f1 32 99 3b 87 93 05 bd
       0.018820286 -0.034038953 0.004675262 -0.032611396
000140 7b 88 f3 3b 83 62 41 bc 89 c5 0f 3d b8 0b a3 bb
       0.007432041 -0.011803272 0.035100494 -0.004975762
000150 c4 af 44 3c 20 74 6d bc ce d2 8c bc 98 89 c6 bc
       0.012004796 -0.014493018 -0.017190363 -0.024235532
000160 6c 49 f0 bc cd 84 8c 3a ad 00 6e 3c 93 e1 86 bc
       -0.029331885 0.001072073 0.014526528 -0.016464984
000170 64 d2 96 bc bb 0c 92 bb af aa 67 bb c2 8e 01 bd
       -0.018410869 -0.004457084 -0.0035349538 -0.031630285
000180 c1 d8 37 bc 14 bc 58 3b f2 a2 9a 3b b3 b9 af 3b
       -0.011221112 0.0033071088 0.0047191316 0.0053627132
000190 99 ac 85 3c f9 57 14 3c 01 fd 19 3b af bd 36 3c
       0.016317653 0.009054177 0.002349675 0.0111536225
0001a0 94 66 16 bb 72 92 74 3b c3 d4 68 bc 05 6b 12 bd
       -0.0022949325 0.0037318734 -0.014210883 -0.035746593
0001b0 82 01 b0 3c 0b b5 9d 3c 68 27 54 3b 60 6a b4 3c
       0.021485094 0.019251367 0.003237212 0.02202338
0001c0 74 27 63 3c d8 93 a5 3c 56 81 f8 bc 56 97 dc 3c
       0.013864387 0.020212099 -0.03033511 0.026927631
0001d0 0e 71 f6 bc ae 16 6a bc 29 09 40 bc f5 29 e4 3c
       -0.030083206 -0.014287634 -0.011720934 0.027852038
0001e0 ab 4a 4b 3c 4c a6 b7 3c ae 62 44 3c 12 5a 36 bd
       0.012407939 0.022418164 0.011986418 -0.04451949
0001f0 9f 30 bb bb cc 2e b6 bc 07 f1 a2 bc b9 fd b2 3c
       -0.005712583 -0.022239111 -0.019890321 0.0218495
000200 24 03 9a bc b5 58 9e bc 11 e3 53 3c 20 bc 0c 3d
       -0.018800326 -0.019329408 0.012932555 0.034359097
000210 e5 b1 53 3b ab 08 54 ba 2a cd 8a bc 69 81 07 bd
       0.0032302078 -0.000808845 -0.016943533 -0.0330824
000220 16 d0 e1 bc 03 ce 9d bc 0f 1f f3 bc 2b 12 80 3c
       -0.027565043 -0.019263273 -0.029677896 0.015633663
000230 13 b2 82 bc 7a bd c3 bc fb 51 e7 bb 67 3d bd bc
       -0.015954053 -0.02389406 -0.0070593334 -0.023100568
000240 20 ec 92 3c b1 d3 a9 bc 2c ef 0c bd 94 19 35 3c
       0.017934859 -0.020730825 -0.03440778 0.011053462
000250 7e 4a 6a bc e4 7f 2e bd 63 9c 37 bd 39 4c 4b bc
       -0.014299987 -0.042602435 -0.044826876 -0.01240831
000260 19 71 02 3d 5a 5f 27 3c 0b 29 96 3c 72 e1 0c 3d
       0.03184614 0.010215605 0.018330118 0.03439469
000270 bf e6 9e 3d ab e3 98 3d 33 e3 22 3c 07 0d 26 bc
       0.07758855 0.07465299 0.009941864 -0.010134942
000280 9c b9 1d 3b 9f 1a 7e bc 88 4e 3e 3c a1 8d 01 3a
       0.002406693 -0.015509277 0.011615403 0.0004942064
000290 b5 92 2c bc 6a 3d 02 bd 07 12 c4 bc 82 d6 3e 3c
       -0.010533025 -0.03179685 -0.023934377 0.011647822
0002a0 9a 9b b4 bc 5c cd 1e 3b df 18 85 bc 48 53 b5 bb
       -0.022046853 0.002423129 -0.016247211 -0.0055336095
0002b0 5b c9 4b bc 68 54 35 3c 5f 24 b3 bc 69 94 d7 3b
       -0.012438144 0.011067487 -0.021867929 0.006578971
0002c0 55 8c b0 bc 0c 05 68 bd 37 89 8a bc e9 e0 18 bc
       -0.02155129 -0.056645438 -0.016911132 -0.0093309665
0002d0 b6 fc 89 3c ae 1a 37 3c 90 dd 73 3d 6c 05 9b 3d
       0.016844135 0.0111757945 0.05953747 0.075693935
0002e0 6b 85 16 3d bd c2 0c 3d 05 18 92 3d 8c 75 b6 3c
       0.03674833 0.034365404 0.071334876 0.022272848
0002f0 07 ea 03 bb 24 30 20 bc a9 16 28 bc 85 b0 16 bd
       -0.0020128505 -0.009777103 -0.010259309 -0.036789436
000300 46 95 2c bd 4e 5b 68 bb fc c2 d0 bc 95 cc 02 3d
       -0.042134546 -0.0035454812 -0.0254836 0.031933386
000310 5c fd 85 3c be b9 27 3c 45 95 8d bb a2 25 06 bd
       0.016356163 0.0102371555 -0.004320773 -0.032750733
000320 72 d3 8b 3c 16 5f 15 3a b5 11 3b bd 36 bc d8 bc
       0.017068598 0.0005698068 -0.045671184 -0.026456933
000330 9e 81 54 bc a8 39 57 bc b6 66 ba bc 2d f9 8d bc
       -0.012970356 -0.013136305 -0.022754055 -0.01733073
000340 60 b1 f0 3c f8 e4 59 3b a2 9a 4f 3c 53 24 76 3d
       0.029381454 0.0033248048 0.012671145 0.060093235
000350 8f 3f a4 3d a6 d4 65 3d c0 4a bd 3d ef ae 0f 3d
       0.08019935 0.056111 0.09242773 0.03507894
000360 32 bf e2 3c ec 95 89 bb 82 55 9f bb 24 b5 66 3c
       0.02767906 -0.0041987803 -0.0048624882 0.014081273
000370 29 e5 09 bd ed 2a b3 3c e9 98 0b bd 0d 62 2a 3c
       -0.03366581 0.021871055 -0.034081373 0.010399354
000380 6a 76 f4 3c 30 3a e9 bc 1e df 9f bb 39 fe 4c bc
       0.02984162 -0.028470129 -0.0048788926 -0.012511783
000390 62 c5 ab 3c 90 d3 ca bb 83 f1 ce bc dc 36 3d 35
       0.020968143 -0.006189771 -0.025261646 7.048782e-07
0003a0 1e 91 0c bd c8 94 9a 3c 69 91 8d 3c 2a 04 a1 bc
       -0.034318082 0.018869773 0.017281251 -0.019655306
0003b0 17 52 39 3d b4 32 10 bc 4d 3c d9 3b 8a 70 3f 3c
       0.045244303 -0.008801151 0.006629503 0.011684546
0003c0 51 e1 81 3d ca 04 3b 3d db e4 63 3d 31 9d 4d 3d
       0.06341804 0.045658864 0.055638175 0.050198738
0003d0 a3 a7 83 3d 83 03 72 3d 14 12 1c 3d bd 4f c2 3c
       0.064284585 0.05908538 0.03810318 0.023719663
0003e0 c9 c9 11 3a 01 85 d7 bb 71 12 a0 bc 94 5f 6c bc
       0.00055613794 -0.0065771346 -0.019540044 -0.0144270845
0003f0 4d 7b a1 3c 55 17 fe bc 2f fd 9e bc c8 d1 5d bc
       0.019712115 -0.031016985 -0.019407837 -0.013538785

linear.bias f4 [10]
000000 a1 8a 50 bd 4e 2f 9e 3d e6 b5 37 bd 0b e4 05 bd
       -0.050913457 0.077238664 -0.044851206 -0.03268818
000010 e7 86 c0 3c 43 ea 07 3d e4 59 1b bd dd ca 98 3d
       0.023501826 0.033182394 -0.037927523 0.07460568
000020 35 22 ca bd 01 46 ac bc
       -0.09869806 -0.021029474
