computer_vision/models/03_pytorch_computer_vision_model_2.pth (torch, 35147 bytes, 10 tensors)

block_1.0.weight f4 [10, 1, 3, 3]
0.2633462 0.32668844 -0.36326048 0.26183653 0.026275396 -0.03787865 -0.47842643 0.27963132
0.36340743 -0.39838576 0.3885138 -0.022564797 0.1976941 0.28723806 0.27486107 -0.091684416
0.36961666 0.109721325 -0.43132836 -0.09629736 -0.028101834 -0.5495443 -0.595707 0.03476333
-0.6820381 -0.59654486 -0.25560027 -0.80226386 -1.1437157 -0.61434543 0.19067577 -0.80918336
0.24815768 0.43835115 -0.08037164 0.3627194 0.087141894 0.3328696 -0.004380087 -0.082517624
0.11467655 -0.13681458 0.054005116 0.20123479 0.20920779 -0.1449958 0.18684131 0.05607126
0.1693383 -0.2036989 -0.32928512 -0.12486765 -0.25525254 0.2642598 0.06342356 0.07233522
-0.11055346 0.022990534 0.26646167 -0.35445958 -0.084033415 -0.38517454 -0.117530614 -0.07294051
0.055515222 -0.13013265 0.35899046 -0.24064745 -0.26079413 -0.20402834 0.32449985 0.16116764
0.582248 -0.25414124 -0.55365133 -0.2805139 -0.31712344 0.0076570315 0.3691986 0.5469418
-0.13608421 -0.22737917 0.17494254 -0.13592498 0.20022617 -0.08090617 0.18815732 -0.25908807
-0.16844921 0.09986763
00000000: 50d5 863e b543 a73e 47fd b9be 700f 863e
00000010: 803f d73c a526 1bbd 4ff4 f4be d62b 8f3e
00000020: 8a10 ba3e 38f9 cbbe 48eb c63e cfd9 b8bc
00000030: 5270 4a3e de10 933e 97ba 8c3e 0ac5 bbbd
00000040: 653e bd3e 93b5 e03d 12d7 dcbe 8d37 c5bd
00000050: d135 e6bc efae 0cbf 4180 18bf fe63 0e3d
00000060: 0d9a 2ebf 2ab7 18bf 0ade 82be 2a61 4dbf
00000070: 4765 92bf be45 1dbf 8240 433e a426 4fbf
00000080: 0c1d 7e3e 906f e03e e399 a4bd 5bb6 b93e
00000090: 7377 b23d e26d aa3e d586 8fbb 00ff a8bd
000000a0: 8adb ea3d 1f19 0cbe 7834 5d3d 7e10 4e3e
000000b0: 913a 563e c779 14be 5453 3f3e faaa 653d
000000c0: 0567 2d3e 7296 50be 0f98 a8be 9cba ffbd
000000d0: 76b0 82be 0f4d 873e 36e4 813d 7d24 943d
000000e0: da69 e2bd a556 bc3c aa6d 883e ba7b b5be
000000f0: b619 acbd 9935 c5be e4b3 f0bd d661 95bd
00000100: ee63 633d 7e41 05be 99cd b73e 496c 76be
00000110: cf86 85be ceec 50be d824 a63e 2109 253e
00000120: 340e 153f cd1e 82be 18bc 0dbf 859f 8fbe
00000130: 015e a2be d6e7 fa3b 9907 bd3e 6104 0c3f
00000140: a959 0bbe 16d6 68be 2324 333e eb2f 0bbe
00000150: 1708 4d3e 22b2 a5bd 50ac 403e 31a7 84be
00000160: f37d 2cbe 6687 cc3d

block_1.0.bias f4 [10]
-0.009778145 0.114997424 0.24533574 0.24219587 -0.26217514 -0.19939491 0.16901438 -0.106099956
-0.113763586 -0.32534504
00000000: 8334 20bc c583 eb3d 4b39 7b3e 3202 783e
00000010: d23b 86be 2e2e 4cbe 1b12 2d3e ef4a d9bd
00000020: e2fc e8bd a093 a6be

block_1.2.weight f4 [10, 10, 3, 3]
0.09207344 0.015318154 0.01836831 -0.15534835 -0.2588741 -0.22783042 -0.07653877 -0.24498838
-0.22010994 -0.107265435 0.03696489 0.0030276603 -0.21063253 -0.33042637 -0.24066132 -0.16540925
-0.24178986 -0.24341345 -0.030917613 -0.0040813168 0.09277664 0.07971239 0.2571426 0.22069897
-0.06068596 0.058871802 0.15314282 -0.1259575 -0.0014722707 -0.15747064 0.031548034 1.610346e-05
-0.15585196 0.13548376 0.052937124 0.058059573 -0.10841756 -0.12734261 0.004640122 -0.01875195
0.033532683 -0.105781354 0.12624902 -0.07015078 -0.013681655 0.022102239 0.05440135 0.08456159
0.0961309 -0.08368434 0.028201742 -0.045176145 -0.012768797 -0.07727672 0.14608426 -0.07880279
0.026965018 0.15216516 0.09479807 0.016221516 0.12693463 0.018722156 -0.00312748 -0.08141357
0.047893867 -0.0064053633 -0.025849046 0.09110491 0.018770754 -0.044907216 -0.03939633 -0.018165395
0.15699998 -0.023612525 -0.047229696 0.0073235203 -0.11058723 0.04459726 0.16735919 -0.09003186
0.008057524 0.054453637 0.01910061 -0.03752636 0.055015758 0.055393953 0.039417464 -0.018522663
-0.027910724 0.011268908 -0.03456009 -0.029020933 0.08516385 0.08772417 -0.010926294 -0.017665224
-0.030297393 -0.043786906 -0.021196919 0.01935264 -0.07851206 -0.02214728 0.07626128 0.03978422
-0.007764812 -0.12152901 -0.09724297 -0.123832546 -0.03454894 0.033234347 0.06240258 0.04734352
-0.09585211 -0.07067916 -0.021450642 0.1050597 0.015698902 -0.022328384 0.036020547 -0.0466936
-0.06372353 0.076846145 -0.046331435 -0.024675954 -0.11430768 0.07900727 0.068329915 0.030379053
-0.07627071 -0.12586667 -0.10575267 0.06853704 0.024969598 0.06588435 0.03387153 0.026702406
-0.00090476824 -0.08011279 -0.090078264 -0.098513596 0.043218434 -0.051822536 -0.021248557 -0.060769152
-0.023018202 -0.0771374 -0.07073596 0.041953623 -0.028338898 0.07144482 -0.024150737 -0.08476574
-0.020378422 -0.05221514 -0.031255946 -0.101836674 0.06222795 -0.07282382 0.053548787 0.046700384
0.077774 -0.08067645 0.07211686 -0.052484382 0.036183424 0.08588104 -0.01680335 -0.0016067084
-0.02325296 -0.08816661 0.053614 -0.10464271 0.06542402 0.078868136 0.09968705 -0.02486483
-0.08661067 0.023696255 0.058230765 -0.10491492 -0.024265327 -0.06274948 -0.0042615714 -0.05135046
-0.03861126 -0.025714952 -0.10311905 0.08941057 0.09024176 -0.016935617 -0.012479885 -0.039111916
-0.09705747 -0.10140509 0.046990667 -0.06730279 -0.06804421 -0.0029961516 -0.038380366 -0.0381958
-0.0004235453 -0.021614246 -0.037713427 -0.05463886 -0.08447182 0.08840988 -0.04210196 0.024419364
-0.03862945 0.011807832 0.09346766 0.050924484 -0.09184251 0.030527731 0.092154495 0.018700019
0.070684545 0.1039266 -0.01648788 0.021753509 -0.07356466 -0.020488206 0.07476423 0.052023295
-0.06548539 -0.0845261 -0.07203221 -0.104052566 -0.08133774 -0.026116626 0.07116234 0.01764817
-0.08011325 -0.08456477 0.048512805 -0.08141121 -0.018708361 0.04934215 -0.051126987 -0.0155334845
-0.008426127 -0.027408598 -0.053941883 -0.09396936 -0.08520751 -0.056412894 0.101523414 -0.05110612
-0.07022099 0.023644403 0.027629757 0.055784717 0.079321556 0.05873127 -0.10442627 0.00699241
00000000: 0091 bc3d fff8 7a3c 2379 963c a313 1fbe
00000010: 258b 84be 614c 69be 5cc0 9cbd 3cde 7abe
00000020: 8064 61be fbad dbbd 7f68 173d b66b 463b
00000030: 0eb0 57be a52d a9be ec6f 76be 0b61 29be
00000040: c397 77be 6041 79be ef46 fdbc 91bc 85bb
00000050: ae01 be3d 4040 a33d 32a8 833e e9fe 613e
00000060: d791 78bd 8f23 713d 79d1 1c3e 01fb 00be
00000070: 35f9 c0ba fc3f 21be 8338 013d eb15 8737
00000080: a897 1fbe 41bc 0a3e 99d4 583d e0cf 6d3d
00000090: 070a debd 1a66 02be 2a0c 983b b09d 99bc
000000a0: 9159 093d e5a3 d8bd 6c47 013e 36ab 8fbd
000000b0: 0529 60bc c10f b53c f3d3 5e3d a02e ad3d
000000c0: 47e0 c43d b262 abbd 5707 e73c 9f0a 39bd
000000d0: 3734 51bc 4243 9ebd 1d97 153e 5b63 a1bd
000000e0: bee5 dc3c 2fd1 1b3e 7e25 c23d fce2 843c
000000f0: 27fb 013e 355f 993c 68f6 4cbb 28bc a6bd
00000100: 5c2c 443d 15e4 d1bb 61c1 d3bc 3695 ba3d
00000110: 20c5 993c a1f0 37bd 0c5e 21bd 98cf 94bc
00000120: 9ac4 203e 0e6f c1bc ed73 41bd 24fa ef3b
00000130: 8f7b e2bd 9eab 363d 3560 2b3e a062 b8bd
00000140: b503 043c c70a 5f3d e278 9c3c 3eb5 19bd
00000150: 3458 613d c5e4 623d 3574 213d d7bc 97bc
00000160: 08a5 e4bc 3aa1 383c e28e 0dbd 4fbd edbc
00000170: 626a ae3d bba8 b33d 3304 33bc a9b6 90bc
00000180: 3d32 f8bc e659 33bd 29a5 adbc 6d89 9e3c
00000190: eeca a0bd 366e b5bc e02e 9c3d c7f4 223d
000001a0: f76f febb 34e4 f8bd 5227 c7bd eb9b fdbd
000001b0: 3083 0dbd bd20 083d d999 7f3d 47eb 413d
000001c0: 1c4e c4bd 3cc0 90bd 42b9 afbc 8a29 d73d
000001d0: fc9a 803c 04ea b6bc 488a 133d ca41 3fbd
000001e0: 7b81 82bd 8361 9d3d 08c6 3dbd 3a25 cabc
000001f0: 251a eabd 90ce a13d 8ef0 8b3d 7edd f83c
00000200: d133 9cbd 31e3 00be db94 d8bd 265d 8c3d
00000210: 0b8d cc3c 60ee 863d e0bc 0a3d 01bf da3c
00000220: f82d 6dba 2d12 a4bd f47a b8bd 7fc1 c9bd
00000230: d005 313d de43 54bd 7411 aebc 13e9 78bd
00000240: ab90 bcbc 37fa 9dbd 04de 90bd 90d7 2b3d
00000250: fa26 e8bc a951 923d c4d7 c5bc a999 adbd
00000260: a6f0 a6bc 8bdf 55bd 3c06 00bd bf8f d0bd
00000270: bce2 7e3d a824 95bd f955 5b3d e748 3f3d
00000280: fa47 9f3d b239 a5bd 01b2 933d ddf9 56bd
00000290: 1235 143d 66e2 af3d 2ea7 89bc 3098 d2ba
000002a0: fe7c bebc b290 b4bd 5b9a 5b3d eb4e d6bd
000002b0: 07fd 853d 9e85 a13d b928 cc3d 54b1 cbbc
000002c0: ef60 b1bd a61e c23c 6283 6e3d a2dd d6bd
000002d0: 14c8 c6bc cd82 80bd a7a4 8bbb dc54 52bd
000002e0: d726 1ebd 2aa8 d2bc 1530 d3bd e41c b73d
000002f0: acd0 b83d 90bc 8abc 6e78 4cbc d133 20bd
00000300: 11c6 c6bd 79ad cfbd 4979 403d 0cd6 89bd
00000310: c35a 8bbd 155b 44bb bb34 1dbd 3373 1cbd
00000320: 4a0f deb9 5c10 b1bc 6579 1abd ffcc 5fbd
00000330: 90ff acbd 3d10 b53d 1b73 2cbd 1e0b c83c
00000340: ea39 1ebd a375 413c f96b bf3d 3196 503d
00000350: ed17 bcbd 4b15 fa3c 7fbb bc3d c830 993c
00000360: 0fc3 903d 78d7 d43d 9711 87bc 6a34 b23c
00000370: 12a9 96bd e2d6 a7bc fd1d 993d 6116 553d
00000380: 341d 86bd 051c adbd a085 93bd 8319 d5bd
00000390: 6794 a6bd 89f2 d5bc 90bd 913d e592 903c
000003a0: 6a12 a4bd 4b30 adbd 5db5 463d ecba a6bd
000003b0: 4742 99bc ff1a 4a3d 886a 51bd 2880 7ebc
000003c0: bd0d 0abc ff87 e0bc 2af2 5cbd 0273 c0bd
000003d0: 4681 aebd 3511 67bd 82eb cf3d a754 51bd
000003e0: 06d0 8fbd e8b1 c13c cd57 e23c 847e 643d
000003f0: 5773 a23d 3390 703d 71dd d5bd 9620 e53b

block_1.2.bias f4 [10]
0.4449375 -0.059038177 -0.06595482 0.53025335 -0.107712924 0.05514258 0.28779653 0.12929548
0.23415624 0.027218044
00000000: d9ce e33e 04d2 71bd 5213 87bd afbe 073f
00000010: 9898 dcbd 30dd 613d 115a 933e 0966 043e
00000020: a7c6 6f3e 60f8 de3c

block_2.0.weight f4 [10, 10, 3, 3]
-0.061866764 -0.08339914 -0.05077462 -0.08489252 0.03893129 0.12642255 -0.11016589 0.053631682
0.11539157 0.058704004 -0.09687932 -0.03985215 -0.089862 -0.06607978 0.058711737 -0.012130937
0.049095634 -0.05954822 0.015623487 -0.063836396 0.052673154 -0.045230072 -0.02613145 -0.09117971
0.00038826556 0.09998109 0.05113905 -0.06911582 0.01884781 -0.043110173 -0.10592978 0.055793945
-0.060299277 0.03354912 -0.043976538 -0.07494306 0.006738023 0.039362807 0.016167846 -0.062016234
0.108573124 -0.013379666 -0.0620162 -0.032285172 0.10537003 0.0111966 -0.012316638 -0.06932178
-0.053845987 -0.101015024 -0.105777666 0.050609786 0.102577865 0.09538168 -0.13590917 0.11882932
-0.1021411 0.049108036 0.12419728 0.020483144 0.118978105 0.09147585 -0.053341288 0.07470121
0.020077629 0.0017155389 0.038421754 0.047760844 -0.14105257 0.022566026 -0.030243373 -0.075347684
-0.07995632 -0.05765116 0.0033061334 0.047349762 0.07991344 0.0036326416 -0.081916034 -0.09960816
0.015805213 0.13378485 -0.033907566 0.08283472 0.18556008 0.08667108 -0.03782711 0.12735812
0.049513564 0.051460747 -0.07861211 -0.12835063 -0.35428312 0.20092507 -0.13902883 -0.11244434
0.04120156 0.17141429 -0.06525246 0.029701438 -0.045501903 -0.11206747 -0.063605934 0.105841525
-0.020958157 0.028753463 -0.035410207 0.06338565 0.05964567 0.03661694 -0.052854314 -0.08479849
0.005729678 -0.061466914 0.087865405 -0.10180134 0.046998035 0.039734025 0.3077468 0.14421785
-0.07806495 0.6013354 0.39120716 -0.62145776 -0.3211162 -0.16876575 0.2141958 0.16205263
-0.020291403 -0.05010569 0.03090644 0.05004885 -0.05828859 -0.12993518 0.038384 -0.02830878
-0.37660658 -0.17303853 0.26551044 0.2969248 0.034335688 0.07198448 0.22796746 0.1405197
-0.6165582 0.1346315 0.24295756 -0.2968437 0.22630621 0.55785346 -0.33936128 -0.04826919
-0.1392118 -0.20047562 -0.26059893 0.015738953 -0.26489523 -0.089646995 0.047375962 -0.16153541
-0.076063946 -0.09781622 -0.32752112 0.11600161 0.32427886 -0.00451488 0.3456333 0.34343275
-0.22588238 -0.12899232 -0.099196546 0.43339723 -0.22676444 -0.20197672 -0.041175276 -0.091963366
-0.3057179 -0.3329293 0.12608443 0.14852345 -0.028377304 0.09447199 0.10107529 -0.056163523
-0.07590337 -0.11567512 -0.026056297 -0.0325421 -0.029318994 -0.024933465 -0.052773077 -0.033289798
-0.038210735 0.10392774 -0.03844066 -0.07571441 0.043652378 -0.0032308483 0.08074176 0.06610548
0.09690785 -0.07726499 0.06778707 0.08903464 -0.0520343 0.096966125 0.0790839 -0.052085795
-0.015924426 -0.10709492 -0.14579208 0.007670608 0.045751903 -0.16029419 0.03364919 -0.051714417
0.07522063 0.09737297 0.03389561 -0.076221295 0.056012843 0.03385555 -0.003027818 0.031988073
0.09653679 -0.07659692 -0.0617848 -0.028000226 -0.007676549 0.04808414 -0.09216639 -0.021957899
0.015302729 -0.014494722 0.025331082 -0.028394828 -0.12563239 -0.05668973 -0.080981776 0.034148235
-0.08806663 -0.16338347 0.0054864152 -0.021096457 -0.039006233 0.057800055 -0.030652642 0.06637472
0.020165034 -0.121891655 -0.006677643 0.071599945 -0.12172557 -0.120316505 0.02780378 0.053331412
00000000: 0168 7dbd 2bcd aabd 0cf9 4fbd 21dc adbd
00000010: 6b76 1f3d ea74 013e a79e e1bd e5ac 5b3d
00000020: 6a52 ec3d 9c73 703d aa68 c6bd 023c 23bd
00000030: 9109 b8bd d654 87bd b87b 703d d6c0 46bc
00000040: 8118 493d d6e8 73bd a7f9 7f3c a8bc 82bd
00000050: cebf 573d 2b43 39bd 9f11 d6bc 6ebc babd
00000060: 1f90 cb39 e3c2 cc3d 2e77 513d 988c 8dbd
00000070: b966 9a3c 4b94 30bd b6f1 d8bd 3188 643d
00000080: 60fc 76bd cd6a 093d be20 34bd bf7b 99bd
00000090: a2ca dc3b e53a 213d 6e72 843c bc04 7ebd
000000a0: 965b de3d 6336 5bbc b304 7ebd 753d 04bd
000000b0: 3ecc d73d f271 373c b9cb 49bc 94f8 8dbd
000000c0: 9c8d 5cbd f7e0 cebd f6a1 d8bd 354c 4f3d
000000d0: 5814 d23d 7857 c33d c62b 0bbe c95c f33d
000000e0: 5a2f d1bd 8225 493d 255b fe3d 44cc a73c
000000f0: cbaa f33d b157 bb3d 657c 5abd f3fc 983d
00000100: d779 a43c efdb e03a 2160 1d3d e0a0 433d
00000110: 1670 10be 63dc b83c f3c0 f7bc e34f 9abd
00000120: 24c0 a3bd 9f23 6cbd b7ab 583b d3f1 413d
00000130: a8a9 a33d 9d11 6e3b 98c3 a7bd 5dff cbbd
00000140: ef79 813c e5fe 083e a9e2 0abd 40a5 a93d
00000150: 7603 3e3e 9b80 b13d 9af0 1abd 2b6a 023e
00000160: bcce 4a3d 81c8 523d 63ff a0bd 596e 03be
00000170: 9964 b5be 4dbf 4d3e 935d 0ebe 3849 e6bd
00000180: f8c2 283d 3a87 2f3e 15a3 85bd 6e50 f33c
00000190: 3460 3abd a183 e5bd d443 82bd 71c3 d83d
000001a0: 71b0 abbc 628c eb3c 4b0a 11bd 56d0 813d
000001b0: 054f 743d a5fb 153d c47d 58bd d5aa adbd
000001c0: 06c0 bb3b bbc4 7bbd c7f2 b33d 397d d0bd
000001d0: 0381 403d 25c0 223d fd90 9d3e d8ad 133e
000001e0: 84e0 9fbd 1ef1 193f 4e4c c83e db17 1fbf
000001f0: 5869 a4be eed0 2cbe 2556 5b3e 20f1 253e
00000200: 283a a6bc a03b 4dbd 812f fd3c 0600 4d3d
00000210: 04c0 6ebd ba0d 05be 8b38 1d3d d1e7 e7bc
00000220: 94d2 c0be 0331 31be fcf0 873e 8706 983e
00000230: 94a3 0c3d 996c 933d 4d70 693e 65e4 0f3e
00000240: c2d6 1dbf d7dc 093e dec9 783e e6fb 97be
00000250: d1bc 673e 7ccf 0e3f c3c0 adbe eab5 45bd
00000260: 8a8d 0ebe 7b49 4dbe 396d 85be faee 803c
00000270: 59a0 87be d898 b7bd 4c0d 423d 8a69 25be
00000280: 6ac7 9bbd df53 c8bd d9b0 a7be 4192 ed3d
00000290: e107 a63e 8ff1 93bb d9f6 b03e 6bd6 af3e
000002a0: b64d 67be 9016 04be 8f27 cbbd 3ee6 dd3e
000002b0: f034 68be fcd2 4ebe 68a7 28bd 4a57 bcbd
000002c0: 0e87 9cbe b675 aabe 471c 013e 8816 183e
000002d0: 8577 e8bc 887a c13d 9000 cf3d b90b 66bd
000002e0: 3a73 9bbd 14e7 ecbd 0474 d5bc dd4a 05bd
000002f0: 632e f0bc 4441 ccbc 9528 58bd e25a 08bd
00000300: dc82 1cbd 11d8 d43d f473 1dbd 2810 9bbd
00000310: d6cc 323d a4bc 53bb f05b a53d 4f62 873d
00000320: 9f77 c63d 1b3d 9ebd f3d3 8a3d cb57 b63d
00000330: eb21 55bd 2d96 c63d bdf6 a13d ea57 55bd
00000340: f173 82bc 9554 dbbd 854a 15be b959 fb3b
00000350: 5966 3b3d 2924 24be bcd3 093d 7fd2 53bd
00000360: 460d 9a3d 7b6b c73d 20d6 0a3d e919 9cbd
00000370: b96d 653d 1eac 0a3d 5b6e 46bb ed05 033d
00000380: 15b5 c53d d9de 9cbd 0f12 7dbd bb60 e5bc
00000390: 8f8b fbbb e0f3 443d bbc1 bcbd 0de1 b3bc
000003a0: 4cb8 7a3c 457b 6dbc 2183 cf3c 459c e8bc
000003b0: c7a5 00be 7e33 68bd c6d9 a5bd 05df 0b3d
000003c0: 475c b4bd ff4d 27be 63c7 b33b 7ad2 acbc
000003d0: 00c5 1fbd c0bf 6c3d 401b fbbc 78ef 873d
000003e0: 2431 a53c 55a2 f9bd 21d0 dabb fea2 923d
000003f0: 414b f9bd 8068 f6bd c1c4 e33c 0a72 5a3d

block_2.0.bias f4 [10]
-0.09245276 0.13806756 -0.09069176 -0.2079263 -0.087442264 -0.039325558 0.26239562 0.32626045
0.7279533 -0.08128119
00000000: df57 bdbd 9561 0d3e 9abc b9bd a2ea 54be
00000010: ee14 b3bd d613 21bd b858 863e 9c0b a73e
00000020: 265b 3a3f c176 a6bd

block_2.2.weight f4 [10, 10, 3, 3]
-0.03231104 -0.16057494 -0.0065370863 0.0033983844 -0.0043240064 0.041506298 0.009770087 -0.120080665
0.08629696 -0.073495016 -0.38721642 -0.06821144 0.14269933 -0.028709246 -0.3144731 0.31589487
-0.013006032 -0.68283635 -0.033825215 -0.003758906 0.11520837 -0.14878319 0.0512801 0.004694044
-0.018738715 0.03111181 -0.113820314 -0.17349496 0.0619804 -0.0037819357 -0.031941433 -0.0055760066
-0.068014026 0.0050827786 0.036833864 0.05364164 -0.08186414 0.005205132 -0.013963346 -0.042893637
-0.00980109 -0.002116564 -0.04518952 -0.038483437 -0.094802484 -0.029577764 -0.22671427 0.14619918
-0.013319168 -0.00039701143 0.14064585 -0.00079196703 0.115543544 0.044951346 -0.2774416 -0.06741274
-0.7079017 -0.19739562 0.11622304 0.3087452 -0.3306505 0.025610693 0.5001715 0.13656045
0.07661175 -0.2070518 -0.06495114 -0.11699668 -0.38442278 0.297225 -0.119804844 -0.13808809
0.46732864 -0.03362352 -0.06264493 -0.1975999 -0.4286324 0.30394685 -0.31396565 -0.357664
-0.012871435 -0.10476304 0.01155914 -0.078698106 0.026294233 -0.051389404 -0.052919455 0.05235822
-0.061217558 -0.0746008 0.079992205 -0.022988906 -0.09700843 -0.08501434 0.0030200528 -0.12238484
0.11140798 -0.012348401 -0.04450198 0.22538981 0.105364285 -0.13392934 0.014357565 -0.038270038
0.30222538 -0.14986742 -0.47052795 0.16069902 -0.059370592 -0.0734527 0.050865 0.010980667
-0.12157867 -0.061706662 -0.06704796 -0.12080983 -0.039497484 -0.06040863 0.15546331 0.13736866
-0.057798088 -0.11966674 -0.05446275 -0.03743158 0.095993616 0.059535548 0.03858299 -0.006819093
0.06565969 0.077466406 -0.051001336 0.047068365 0.15372075 -0.045006134 -0.106277436 -0.08431948
-0.030007005 -0.05198482 -0.1387048 -0.1043142 -0.06545841 0.0032498757 0.20280394 0.009886012
-0.27745363 0.18628149 0.2278054 -0.18836829 0.33303824 -0.33594912 -0.043754045 0.41359502
-0.44975746 -0.05677166 -0.31562626 0.08608476 0.09668461 -0.32899007 -0.008538847 0.08551438
-0.35656336 -0.0031474489 -0.04747484 -0.10108239 -0.09732484 0.38280687 -0.038971927 -0.30206853
0.17703852 -0.03839462 -0.15500379 -0.026139522 0.07624915 0.16874288 -0.042215012 -0.0413575
0.037121557 0.020625439 -0.04087268 -0.084366135 0.16291434 0.012729578 -0.061212134 -0.021100203
-0.017865334 -0.09219076 0.022640832 0.10221864 0.0016348801 -0.3304382 -0.20727317 -0.5341731
-0.10660173 0.4446247 -0.34898928 -0.32892838 0.32356718 0.4420758 -0.051345196 -0.050404124
-0.039405126 -0.07983819 0.05597309 0.054724492 -0.05399941 0.0020457446 0.05270903 -0.09956594
0.087528154 -0.0203122 0.11243744 0.04895456 -0.21238579 0.118535504 -0.018619213 -0.07345517
0.06846879 -0.090010725 -0.11722924 -0.032094944 0.08485054 -0.13748266 0.10591256 0.06918927
0.051913437 0.12672246 -0.035386864 -0.23757784 0.11791344 -0.019845763 -0.24225599 0.06513195
-0.065119356 -0.24808525 -0.76702195 -0.14409389 0.1463034 -0.6409937 0.00907256 -0.06500551
-0.37538385 0.039300065 0.1385238 0.11068098 0.27520722 0.2960688 -0.09223943 0.06490778
-0.05332715 -0.27326384 -0.26612404 -0.04013801 -0.20753178 -0.06766716 0.06569299 -0.052105308
00000000: 9558 04bd c26d 24be 0e35 d6bb 6eb7 5e3b
00000010: 65b0 8dbb 8202 2a3d b712 203c daec f5bd
00000020: 76bc b03d 8e84 96bd 3b41 c6be 71b2 8bbd
00000030: c61f 123e a72f ebbc 9e02 a1be f9bc a13e
00000040: 4117 55bc 5dce 2ebf 4f8c 0abd fa57 76bb
00000050: 5ef2 eb3d 9f5a 18be 150b 523d 7fd0 993b
00000060: ef81 99bc 32de fe3c a01a e9bd aaa8 31be
00000070: 29df 7d3d 5ada 77bb 05d5 02bd efb6 b6bb
00000080: f04a 8bbd 708d a63b 1bdf 163d 56b7 5b3d
00000090: 63a8 a7bd d08f aa3b 85c6 64bc 3db1 2fbd
000000a0: c094 20bc 0db6 0abb a518 39bd cfa0 1dbd
000000b0: ce27 c2bd 114d f2bc c927 68be 3db5 153e
000000c0: a438 5abc f925 d0b9 7705 103e 029c 4fba
000000d0: 18a2 ec3d e71e 383d d30c 8ebe b10f 8abd
000000e0: 0c39 35bf 1422 4abe 5806 ee3d da13 9e3e
000000f0: 064b a9be 84cd d13c 3d0b 003f 81d6 0b3e
00000100: 9fe6 9c3d 6305 54be 1a05 85bd f59b efbd
00000110: 10d3 c4be e02d 983e 3e5c f5bd f766 0dbe
00000120: b345 ef3e d1b8 09bd fc4b 80bd a157 4abe
00000130: b575 dbbe ec9e 9b3e 1bc0 a0be bc1f b7be
00000140: b6e2 52bc 018e d6bd 8c62 3d3c 792c a1bd
00000150: 0167 d73c b27d 52bd 12c2 58bd 9375 563d
00000160: 43bf 7abd 4ec8 98bd f4d2 a33d 3b53 bcbc
00000170: 5bac c6bd 001c aebd 14ec 453b e7a4 fabd
00000180: de29 e43d f350 4abc b547 36bd 96cc 663e
00000190: 3bc9 d73d c624 09be fe3b 6b3c 0bc1 1cbd
000001a0: 49bd 9a3e d876 19be 0ae9 f0be 498e 243e
000001b0: 942e 73bd 5f6e 96bd d157 503d 41e8 333c
000001c0: 3dfe f8bd 20c0 7cbd 7150 89bd 256b f7bd
000001d0: 1dc8 21bd 0a6f 77bd c631 1f3e 5faa 0c3e
000001e0: b0bd 6cbd d613 f5bd 5514 5fbd db51 19bd
000001f0: 4d98 c43d 8cdb 733d 3309 1e3d b372 dfbb
00000200: 9678 863d b5a6 9e3d c7e6 50bd c2ca 403d
00000210: f968 1d3e 5a58 38bd fca7 d9bd b1af acbd
00000220: 40d1 f5bc 09ee 54bd a208 0ebe afa2 d5bd
00000230: 0f0f 86bd defb 543b d6ab 4f3e f1f8 213c
00000240: 670e 8ebe 93c0 3e3e d245 693e 9ee3 40be
00000250: fd83 aa3e 8601 acbe 7137 33bd bac2 d33e
00000260: 9c46 e6be 6689 68bd c499 a1be 354d b03d
00000270: 9502 c63d 6371 a8be 85e6 0bbc 2a22 af3d
00000280: 798f b6be 6e45 4ebb fa74 42bd 4904 cfbd
00000290: 3f52 c7bd 43ff c33e 07a1 1fbd baa8 9abe
000002a0: 9649 353e ad43 1dbd 50b9 1ebe 8d22 d6bc
000002b0: 8428 9c3d efca 2c3e a6e9 2cbd 7b66 29bd
000002c0: c60c 183d aef6 a83c 1c6a 27bd 27c8 acbd
000002d0: 04d3 263e b88f 503c 93b9 7abd 55da acbc
000002e0: 525a 92bc 82ce bcbd 4479 b93c 0258 d13d
000002f0: 7949 d63a 322f a9be 6b3f 54be 91bf 08bf
00000300: 0252 dabd d9a5 e33e b9ae b2be 4d69 a8be
00000310: 99aa a53e c257 e23e 574f 52bd 8e74 4ebd
00000320: 4567 21bd 3482 a3bd 0a44 653d ca26 603d
00000330: 7c2e 5dbd e611 063b 6de5 573d 3ae9 cbbd
00000340: f641 b33d c565 a6bc 9a45 e63d 9484 483d
00000350: a97b 59be bec2 f23d 5287 98bc aa6f 96bd
00000360: 5d39 8c3d 8b57 b8bd e215 f0bd fd75 03bd
00000370: 1fc6 ad3d 41c8 0cbe afe8 d83d 1bb3 8d3d
00000380: 2fa3 543d 88c3 013e d1f1 10bd 9b47 73be
00000390: 9a7c f13d 9593 a2bc f411 78be e663 853d
000003a0: 4c5d 85bd 0f0a 7ebe 8d5b 44bf 598d 13be
000003b0: 8fd0 153e 2a18 24bf 13a5 143c 9c21 85bd
000003c0: 5032 c0be 1bf9 203d 2fd9 0d3e b6ac e23d
000003d0: f6e7 8c3e 5496 973e 07e8 bcbd 5fee 843d
000003e0: 926d 5abd 3de9 8bbe 6941 88be c167 24bd
000003f0: 3683 54be 1495 8abd 0c8a 863d 606c 55bd

block_2.2.bias f4 [10]
0.22297782 -0.33759862 0.2396877 -0.023467146 -0.03452421 0.22966743 0.11432646 -0.16790506
-0.1655006 -0.043930274
00000000: 4c54 643e bad9 acbe b170 753e 2c3e c0bc
00000010: 4269 0dbd f02d 6b3e fe23 ea3d 4eef 2bbe
00000020: fd78 29be 3bf0 33bd

classifier.1.weight f4 [10, 490]
0.024879742 -0.099136755 0.20606634 -0.11456888 0.0684677 0.073309466 0.08404782 0.037415963
0.28096333 -0.07293275 -0.22038029 0.12839244 0.083679445 -0.0050422996 0.034279495 -0.056793585
0.21309099 -0.111091465 0.053454123 0.06960363 -0.09054506 0.0034921542 0.11535207 0.06981358
0.08701116 0.23160398 0.12976061 0.01658571 -0.026434498 0.038587525 -0.062011544 0.005405324
0.18776911 -0.14711902 0.06372044 0.035777323 -0.07892357 -0.09974748 -0.13726369 -0.13440645
-0.04723973 -0.06278582 0.083095476 -0.1715756 -0.13273571 0.027828667 -0.008657412 0.2809336
-0.10798142 0.13231763 0.024302136 -0.018886298 -0.15891625 -0.12100907 0.044156905 -0.01842155
0.05511104 -0.010941814 -0.06341269 -0.05112952 -0.047654577 0.045506794 -0.070442095 -0.00092194433
0.21481727 -0.08792161 0.03353229 -0.07901437 0.07014178 -0.031273592 0.10217516 0.0980425
-0.15641366 -0.061058514 0.13274263 -0.07372896 -0.067898855 0.03566736 0.16667217 -0.013383735
-0.13260782 0.04673308 0.03479692 -0.12264137 -0.1433386 0.07313152 0.09840309 -0.09137062
-0.113639385 0.05522666 0.028436182 -0.07960482 -0.07397283 0.28401256 -0.05827363 -0.11012833
0.066416495 -0.0150828045 0.0780903 -0.011965484 -0.03472709 0.07175651 0.054706264 0.2506081
-0.0066886903 0.22097369 0.17053424 -0.048218463 0.029969152 0.0008052203 0.14659181 0.0363204
0.1432345 0.17263427 0.3780458 -0.053262524 0.094682075 -0.058697615 -0.008862125 -0.014246232
-0.19776714 0.0041847196 -0.10677113 -0.01819982 0.09552442 0.0033013532 -0.20341615 -0.055344418
0.054708846 -0.076126516 -0.12880048 -0.052058537 0.012413926 -0.08678897 0.12621647 0.14340417
-0.039921258 -0.14786154 -0.061385855 -0.02557413 -0.085305065 0.12693417 0.01724142 -0.09323128
-0.034836724 -0.18569142 -0.061661474 0.11248641 -0.20962006 -0.079617456 0.013273684 0.0927267
0.044265125 -0.06214997 -0.07990155 0.0025315515 -0.086387716 -0.014858895 0.011806129 -0.12587367
-0.14626426 -0.1290839 -0.0469806 -0.05515939 0.03961524 -0.04803191 -0.08002432 0.11466362
0.022582823 0.17894521 -0.029079536 0.04535917 0.0145118935 -0.0020988479 0.17521194 -0.0102627715
0.2537277 -0.03876264 -0.03248979 -0.03347409 -0.04819598 0.19608124 -0.074849404 0.26116502
-0.034381695 -0.057945166 0.014144015 -0.011196039 0.14263976 0.008348756 0.0813044 -0.035353698
0.00012138394 -0.06651553 -0.03324303 0.06713037 0.008599213 0.040437583 -0.014003777 -0.007519185
0.027792234 -0.018499222 -0.0072860187 0.009805498 -0.039253585 0.1457294 0.23545125 0.05451207
-0.12368522 -0.006214886 0.08276851 0.110648006 0.04062406 0.1444631 0.09537157 0.2992895
0.14108735 0.11437803 0.043210685 -0.1595631 -0.011160226 0.060063202 0.16956927 0.06144946
0.06519331 -0.08541912 -0.12971644 0.06466608 -0.04258228 -0.010197656 -0.016795786 -0.035834014
-0.16168185 -0.01879194 0.01028041 -0.023127405 0.048214998 -0.052387927 0.021441085 -0.028571831
0.070620455 -0.00659725 -0.12054433 -0.07974763 -0.0009369583 0.023342505 0.09180593 -0.0066364952
0.09897228 0.03636516 0.2585741 0.0751706 -0.0032046917 -0.09394387 -0.039574243 0.14043286
00000000: 9ad0 cb3c 3608 cbbd 0e03 533e 17a3 eabd
00000010: cb38 8c3d 4623 963d 4321 ac3d 7b41 193d
00000020: 6dda 8f3e c45d 95bd 5fab 61be 4f79 033e
00000030: 2160 ab3d e039 a5bb a868 0c3d 64a0 68bd
00000040: 8634 5a3e ec83 e3bd b6f2 5a3d 598c 8e3d
00000050: b06f b9bd a0dc 643b b53d ec3d 6cfa 8e3d
00000060: e832 b23d 9829 6d3e f7df 043e c1de 873c
00000070: 298d d8bc f40d 1e3d d1ff 7dbd 251f b13b
00000080: 8c46 403e 5ea6 16be dd7f 823d 3e8b 123d
00000090: aea2 a1bd 6848 ccbd da8e 0cbe d8a1 09be
000000a0: 727e 41bd da95 80bd f62d aa3d 84b1 2fbe
000000b0: dfeb 07be f2f8 e33c d1d7 0dbc 87d6 8f3e
000000c0: 5d25 ddbd 467e 073e 4615 c73c 70b7 9abc
000000d0: f1ba 22be 9ad3 f7bd dfdd 343d cae8 96bc
000000e0: 1dbc 613d 4b45 33bc 83de 81bd 306d 51bd
000000f0: 7231 43bd 5565 3a3d f243 90bd a3ae 71ba
00000100: 0ff9 5b3e 3f10 b4bd 2859 093d 49d2 a1bd
00000110: 7ea6 8f3d bd18 00bd 3641 d13d 82ca c83d
00000120: e72a 20be 7e18 7abd afed 073e 35ff 96bd
00000130: 8e0e 8bbd f017 123d 1cac 2a3e 7447 5bbc
00000140: 58ca 07be 306b 3f3d 3787 0e3d 662b fbbd
00000150: 5bc7 12be fac5 953d 8f87 c93d 8520 bbbd
00000160: c4bb e8bd 5a35 623d fff2 e83c da07 a3bd
00000170: 117f 97bd 186a 913e 54b0 6ebd f68a e1bd
00000180: 5f05 883d de1d 77bc cfed 9f3d e10a 44bc
00000190: fe3d 0ebd 14f5 923d ad13 603d b44f 803e
000001a0: cd2c dbbb ed46 623e 87a0 2e3e b980 45bd
000001b0: de81 f53c 6b15 533a 2a1c 163e b3c4 143d
000001c0: 11ac 123e 0ac7 303e 388f c13e ce29 5abd
000001d0: ade8 c13d e96c 70bd 7232 11bc 0769 69bc
000001e0: 7883 4abe f91f 893b d2aa dabd ca17 95bc
000001f0: 4fa2 c33d 845b 583b 534c 50be d4b0 62bd
00000200: 6216 603d 38e8 9bbd 46e4 03be 553b 55bd
00000210: c863 4b3c 6abe b1bd e43e 013e 8bd8 123e
00000220: 7984 23bd 0469 17be bc6f 7bbd d680 d1bc
00000230: 6cb4 aebd 08fb 013e e13d 8d3c 0bf0 bebd
00000240: f4b0 0ebd e425 3ebe be90 7cbd 465f e63d
00000250: a4a6 56be 7a0e a3bd de79 593c 7fe7 bd3d
00000260: 594f 353d f890 7ebd 6da3 a3bd 63e8 253b
00000270: 0bec b0bd b972 73bc 7e6e 413c 07e5 00be
00000280: 4cc6 15be 922e 04be bb6e 40bd d0ee 61bd
00000290: 9743 223d 1cbd 44bd cae3 a3bd c3d4 ea3d
000002a0: 9dff b83c 6a3d 373e 3538 eebc 89ca 393d
000002b0: 4bc3 6d3c d38c 09bb c26a 333e 2f25 28bc
000002c0: 99e8 813e 93c5 1ebd 0414 05bd 211c 09bd
000002d0: 2669 45bd 85c9 483e a54a 99bd 6cb7 853e
000002e0: d2d3 0cbd e957 6dbd 4cbc 673c 976f 37bc
000002f0: 2810 123e 38c9 083c ec82 a63d 0acf 10bd
00000300: 828f fe38 4b39 88bd d829 08bd a67b 893d
00000310: b7e3 0c3c e1a1 253d 1970 65bc 7f63 f6bb
00000320: 8aac e33c ae8b 97bc 8ebf eebb 3da7 203c
00000330: 5ec8 20bd 163a 153e 221a 713e 0c48 5f3d
00000340: ad4e fdbd 3ea6 cbbb 8982 a93d 6c9b e23d
00000350: 6a65 263d 23ee 133e 2b52 c33d 793c 993e
00000360: 3479 103e 073f ea3d b0fd 303d 8264 23be
00000370: 61d9 36bc d504 763d 91a3 2d3e 6eb2 7b3d
00000380: 1284 853d 38f0 aebd 63d4 04be a66f 843d
00000390: c26a 2ebd 1214 27bc 5197 89bc b0c6 12bd
000003a0: ed8f 25be 8ef1 99bc 2a6f 283c af75 bdbc
000003b0: 177d 453d b994 56bd 37a5 af3c 790f eabc
000003c0: 75a1 903d be2d d8bb f2df f6bd ba52 a3bd
000003d0: 359e 75ba c838 bf3c bf04 bc3d f576 d9bb
000003e0: fbb1 ca3d a2f3 143d d363 843e 0bf3 993d
000003f0: ce05 52bb a565 c0bd 9a18 22bd a2cd 0f3e

classifier.1.bias f4 [10]
0.041211024 -0.12549928 0.4495871 -0.080925934 -0.4071736 -0.17013526 0.24579063 0.0051122922
0.15269825 -0.14749268
00000000: e4cc 283d e282 00be 4830 e63e 7fbc a5bd
00000010: 0f79 d0be f037 2ebe 8ab0 7b3e 0485 a73b
00000020: ee5c 1c3e 5208 17be
